tutorials/models/california_model.pt (torch, 28431 bytes, 7 tensors)

lin1.weight f4 [100, 8]
00000000: 1987 aabe e910 8ebd 32e4 2dbe bc1f c1bd
00000010: 87e9 9fbe 4548 113e 4544 a2be aa8e b8bc
00000020: aae9 82be 4826 d2bd f16f 603d f4da ba3d
00000030: aa54 453e e323 a93e cd7b 1bbe 87f5 fc3d
00000040: 8514 e7be f335 ea3d 84bb 99be 4d23 453e
00000050: cfda 7a3d 3741 91bd dbc8 2bbe c59c ae3d
00000060: 4730 3ebd f654 2d3e eb25 4abe 417f 663c
00000070: 15a1 483e e235 1cbe d5c7 e33d 516a e4bd
00000080: 08a0 113f 1b96 10be 0ab2 263e 6fc0 953d
00000090: 3a02 703e 5593 26be 7e50 a23e 67f5 95be
000000a0: ddb6 7a3b fd77 b5be ced3 9e3d 2242 b53d
000000b0: c440 08be 8cdb 183e e042 28bd fc96 a5be
000000c0: 2043 203f 7859 593e 27ca a43e 0e1c 6e3e
000000d0: 2893 f73d 4bd6 a73d 0384 903e c064 73bd
000000e0: 39da 89bd bc62 57be 9cdd c13c 1d0a 8dbd
000000f0: cdad d4bb b9bc 2a3e 0afb ed3d f814 87be
00000100: 0165 e2bd d238 b3bd 9ee6 573e 81c7 07be
00000110: b5e9 1bbe 6399 7abd 3e11 c1bd 7a65 a9bd
00000120: 1079 d8be 87f7 b53e e828 2b3e dba5 14be
00000130: 65ee 48be 8c4b c43c 7333 503e afe0 82be
00000140: 0a3f 68bd 10e6 013e 3e1a 3fbe b65f 82bd
00000150: a052 8cbe 5d1a aa3e 871c 4a3e 70c8 aabe
00000160: 9444 ffbd 1e08 173e 742a 503d 7029 9e3d
00000170: ffd1 93be 92e7 2abe af19 283e 0bf1 8bbe
00000180: 2179 dcbe cbfc 153e e02c f93c dbbe 513d
00000190: 10eb c03d 4e98 763e 65ed 37bd 59cf bfbd
000001a0: f823 903e c1d2 b83e 2d87 183e 244e 1abe
000001b0: 230a a3be b188 a0be 00da ac38 8f91 08be
000001c0: 1b16 843c dd11 8ebd 693e c33e 38b0 a73e
000001d0: 2a76 0fbd 2b89 0cbe 26fc 3b3e 2a85 23bd
000001e0: 4f11 5abe a18c fa3d a46d de3e 4077 98be
000001f0: 1f19 9cbd 7f67 a63c 8800 8fbe 5940 9fbe
00000200: d6a9 213f f386 0ebe 0be7 b03e 9cf0 05bc
00000210: 2001 a23d b294 a9be cd58 9fbd 19e0 713e
00000220: c40d 263e 5e59 d1bd 7c26 323d 7997 8a3e
00000230: d19b 9ebe 0c8e 683e 419d d9bd a14d 93bd
00000240: 35f8 50be 1e4c 93be 7cd0 4ebe 9c83 c23e
00000250: c12c 053e 9097 f8bc 68be 98bd 5925 8d3e
00000260: f195 fe3d a3e1 4a3e a251 80be b104 c33d
00000270: 5b73 7b3d 12b4 833d 379b a73e f45d 493e
00000280: 7455 8a3e 06ec 3b3e de70 193e cd9f 31bd
00000290: 2f1c 9dbe f130 81be 7858 56be b19d 75be
000002a0: 25d1 69be a89c d43d 3854 8bbe 6821 75be
000002b0: 2b34 af3e 4106 b83e 1d37 1b3e b346 bb3e
000002c0: 93c0 40be 7b2c 4ebe a0ea 53be fb38 8cbc
000002d0: f3ca 9fbe 6b4d 8f3e 5903 153c 254b 343e
000002e0: 695b 12bf 810f 44bd 5699 fbbd 44a6 8abd
000002f0: 0529 a73e 14b5 91bd 4774 d03d 502b 6ebe
00000300: 28e7 92be b6e1 b9bd 89b2 8a3d 3f52 8d3e
00000310: 1072 a93d 3fd9 533d 9019 aabd b8d9 893e
00000320: cfd7 41be 5372 773e 3d2f 49be 35c1 983e
00000330: 05ff b33e 59a4 923e b249 513e e0dc 043e
00000340: abbe 0cbf b983 943c 92cb ccbc 3afc 59bd
00000350: c20c 893d bf76 9c3e 4e32 a9be d0a7 a3be
00000360: 78a1 58be 69a7 303d a636 86bd 6b08 9c3d
00000370: c72f acbd 1601 6dbe 7b45 403d 3e34 753e
00000380: bdca 82be 445a 923e 954a 283d a682 b33e
00000390: ee4c acbe 6e18 a6be be2c e33d 904b a4be
000003a0: 75c1 b03d 9bd3 343e e720 a93e 002f babe
000003b0: f687 7f3e 9b2c 33be 03d2 853e de91 52be
000003c0: 3420 acbe 3e00 70be 1c81 60bd d7c9 b4be
000003d0: 8956 c5bc 02b0 34be ca87 a8bd 04e5 52b8
000003e0: eb5b 36be 26b8 c3be 90fb 813d e9d4 59be
000003f0: 63fd 553e 0d14 b03e 7c58 f6bd fc7b 2b3d
-0.33306196 -0.06936819 -0.16981581 -0.09429881 -0.31232855 0.14187725 -0.3169271 -0.022528965
-0.25568897 -0.10261208 0.054794256 0.09123793 0.19270578 0.33035192 -0.15183945 0.12351518
-0.45132843 0.11436071 -0.30025876 0.19251747 0.06124383 -0.07092517 -0.16775839 0.08525995
-0.04643276 0.16926941 -0.19741027 0.014068426 0.19592698 -0.1525493 0.11122099 -0.11153091
0.56884813 -0.1411976 0.16278854 0.073120944 0.2343835 -0.1626714 0.31702036 -0.2928879
0.0038255968 -0.35443106 0.07755242 0.088505045 -0.13305956 0.149275 -0.041079402 -0.32341754
0.62602425 0.21225536 0.3218548 0.2325289 0.12088615 0.0819517 0.28225717 -0.059422255
-0.06731076 -0.21033758 0.023665242 -0.068866946 -0.006490445 0.16673554 0.116201475 -0.26383185
-0.11054421 -0.08751072 0.21084067 -0.13259698 -0.15225871 -0.061181437 -0.09427117 -0.08271308
-0.42279863 0.3554041 0.16714823 -0.14516394 -0.1962219 0.023961805 0.20332126 -0.25562045
-0.056700744 0.12685418 -0.18662354 -0.06365912 -0.27406788 0.3322324 0.19737445 -0.33356047
-0.12464252 0.1474919 0.050821736 0.07722747 -0.28871152 -0.166899 0.16416048 -0.2733234
-0.43061164 0.14647214 0.030416906 0.051207405 0.094198346 0.24081537 -0.04490413 -0.0936572
0.28152442 0.36098292 0.14895315 -0.15068871 -0.3184367 -0.31354287 8.242205e-05 -0.13336776
0.016123822 -0.06937001 0.38133553 0.32751632 -0.0350248 -0.137242 0.18357906 -0.039921917
-0.21295665 0.12233854 0.43443024 -0.2977848 -0.07621979 0.020313023 -0.27930093 -0.3110378
0.63149774 -0.13918667 0.34551272 -0.0081750415 0.07910371 -0.33121258 -0.07780609 0.23620643
0.16216189 -0.102221236 0.043493733 0.2706869 -0.30978253 0.22710437 -0.10625697 -0.07192541
-0.20407183 -0.2876901 -0.20196718 0.37991035 0.13005354 -0.030345708 -0.07458192 0.27567557
0.12430943 0.19812636 -0.2506228 0.09522379 0.06138931 0.0643083 0.32735607 0.19664747
0.2701832 0.18351755 0.14984462 -0.04336529 -0.30685565 -0.25232652 -0.20932186 -0.23985936
-0.22833689 0.10381442 -0.2721269 -0.23938525 0.34219489 0.3594227 0.15157743 0.36577377
-0.18823461 -0.20134155 -0.20694971 -0.017117014 -0.31209525 0.27988753 0.009095036 0.1760679
-0.5717073 -0.04786635 -0.12285106 -0.06769994 0.32648483 -0.07114616 0.10178428 -0.2325871
-0.28691983 -0.09076254 0.06772334 0.2760181 0.08273709 0.051720854 -0.08305657 0.2692392
-0.1892998 0.24164705 -0.19646926 0.29834905 0.35155502 0.28641012 0.20438269 0.12974882
-0.54978436 0.018129217 -0.024999414 -0.053219058 0.066918865 0.30559346 -0.33046192 -0.31963968
-0.21155345 0.043128405 -0.06553392 0.07618793 -0.0840755 -0.23144946 0.04694126 0.2394571
-0.25545302 0.28584492 0.041086752 0.35060614 -0.33652443 -0.32440513 0.11092518 -0.320889
0.08630649 0.17658846 0.33032915 -0.36363983 0.24954209 -0.17497484 0.2613679 -0.20563456
-0.3361832 -0.23437592 -0.05481063 -0.35310242 -0.024089115 -0.17645267 -0.08229025 -5.028119e-05
-0.17808501 -0.38226432 0.0634681 -0.21272625 0.2089744 0.34390298 -0.12028596 0.041866288

lin1.bias f4 [100]
00000000: bf1a a7be 41e1 bc3c fc1e b3bd 033b 77bd
00000010: db1d 453e ff15 29be bf76 7cbe 18e6 2f3d
00000020: be74 8e3d fc1c 41be d14c 17be 18f0 a0be
00000030: 2024 4a3e c60f 3bbe 81c2 3a3e fb98 91be
00000040: eb1c 75be 9262 3ebc 9897 b53e c1c4 3fbd
00000050: ea6f bcbc dd6c bfbd 01b6 503d 793d eebd
00000060: 1d17 903e cba7 1b3d c62c 383e e47f 3f3c
00000070: 2145 833e b1bd 66be 01e8 38be 0a63 11be
00000080: 91d0 13be 74a3 ce3c 0c8e 273e 3154 85be
00000090: f2f2 79be 094a 5b3e 4ed4 233e 6e1d 903d
000000a0: 407f 173e 22cf db3c d525 00be 6d39 68bd
000000b0: 93f0 bdbd 80df 1fbe 8dae 5dbe e9f3 79bd
000000c0: 73b5 83be 6b52 51be 9044 61be c03c a73e
000000d0: ba0a b93e ff8c 533e 1bed 98bd a5ea 0f3e
000000e0: acdc 173e 5453 353d 743d 3b3e 58a8 e73d
000000f0: dfad 0b3e eaeb a93e 0149 96be 30d2 193d
00000100: 3336 8e3e 0d40 8e3e 7378 bbbd e441 843e
00000110: d8df 59be eeaf febc 22b3 9f3e 895f 29bd
00000120: 7a38 313e bda9 b43e 385f 20be acf5 1c3e
00000130: 36eb fabd 2f8a cbbd fb34 863e 815a ec3d
00000140: 0316 9abe f5a5 a93e b4ff 7f3e 39ce 353e
00000150: cb42 4b3d 1f9b 263e 335b e2bd f026 07be
00000160: 0219 383e c051 673d 72c1 a63e 95ed cf3b
00000170: 727a 8ebc 8f20 583e 06a6 29be 6add 9fbe
00000180: 4230 423c 1192 a03e 5601 8cbe b975 573d
-0.32637593 0.023056628 -0.08746144 -0.060359012 0.1924967 -0.16512297 -0.24654673 0.042944044
0.069558606 -0.18858713 -0.14775397 -0.31433177 0.19740343 -0.18267736 0.1823826 -0.28437027
-0.23936813 -0.011620181 0.3546722 -0.0468185 -0.023002584 -0.09346936 0.050954822 -0.11632819
0.28142634 0.038001817 0.1798583 0.011688206 0.2563868 -0.22533299 -0.18057252 -0.14197937
-0.1443503 0.025224425 0.1636278 -0.26040795 -0.24409083 0.21414961 0.15998957 0.07036863
0.14794636 0.026832167 -0.12514432 -0.05669539 -0.092744015 -0.15612602 -0.21648617 -0.061023626
-0.25724372 -0.20441596 -0.21998811 0.32663536 0.36140996 0.20659254 -0.07467099 0.14054354
0.14830273 0.04426892 0.18285161 0.11311406 0.13640545 0.331878 -0.29352573 0.037553966
0.27775726 0.27783242 -0.09153833 0.2583152 -0.21276796 -0.03108975 0.31191355 -0.041350875
0.173067 0.3528575 -0.15661323 0.15328091 -0.12251894 -0.09938466 0.26212296 0.115407
-0.3009492 0.33134428 0.24999887 0.17754449 0.049624246 0.16270112 -0.11052551 -0.13198447
0.1797829 0.056474447 0.32569462 0.0063454607 -0.01739237 0.2110617 -0.16567239 -0.31223613
0.011852326 0.3136144 -0.2734477 0.052602503

lin2.weight f4 [50, 100]
00000000: 4706 86bd 1771 3ebc 0048 41ba e964 33bd
00000010: 1490 efbc 7634 553d d865 07bd 0e49 493c
00000020: 8c5d 50bb 2cdd 933d 4646 263d b6fe e9bc
00000030: 53d6 a9bd 58bd 283e 43c2 89bc 0643 0f3d
00000040: 6732 31bd 7221 913d 40cf 8a3d 0466 57bb
00000050: 3d68 f93d 0015 3f3b 2739 1b3d 116e 95bc
00000060: db74 b0bd f811 a7bd c0f9 4d3c 7dfb cbbd
00000070: 2639 bcbd 2cc0 80bd 47e7 533d 1eb0 293d
00000080: 78eb a6bd 73b7 88bd 6331 1fbd aaea 96bd
00000090: d7cd b83d 033f 83bd 9d91 8bbd 5d72 92bd
000000a0: c82e 3cbd 10f6 933d cbd1 253c 4d14 f43b
000000b0: 2312 cabd 633a af3d ebcb 873d 2597 34bc
000000c0: 9a40 8b3d 1a27 04bd bb09 c0bd ecfa 21b9
000000d0: d5ee 573d 0a7e 37bd 9ce6 02bc a1c3 c03d
000000e0: 8dfa c13d 0cf1 823d 82ee b1bd 31cf 6cbd
000000f0: d624 2e3e 8fa5 b1bd 1a00 d7bb 51c7 abbd
00000100: 73df 52bd 13c2 afbd 3867 113d def6 8b3d
00000110: d4ad 84bc 2874 3fbc f306 d23c e180 93bc
00000120: e5aa 693a a344 283d 8320 873d 0a17 513d
00000130: c6a0 c73c c0e2 9b3d e38f b6bd a35a 163d
00000140: 557d a63d 0a39 a53d c0ef 3ebd e5f6 883d
00000150: 00a3 6a3b 33e6 e4bc 3303 7dbb ad40 cebc
00000160: b69a a93c e00d d9ba cb4c 01bc 3d36 2cbd
00000170: 36bc 753d 66ee 8dbd 210b 2bbc 3b2d 793d
00000180: 305a 5abd 5f5f 83bd 5273 d53c 7a9b 90bd
00000190: d7cd 2abd 22c9 a73d 3cd0 3a3d 48ab af3d
000001a0: 6d8f cabd a739 92bd 255b b43c e070 153d
000001b0: 215f 62bd 0305 e63c 6d82 a33c 831e 17bd
000001c0: fb53 b03d 91f0 55ba 2274 b33d d1d8 72bd
000001d0: 0769 d13a c30a 43bd 2160 9d3d 8ec8 ac3d
000001e0: 7879 fabd 6158 bc3c 57f8 ad3d ce7f e23b
000001f0: 3273 26bd a71b afbc d7d5 95bd 6b8f c83d
00000200: 6bda 44bd ba6e 863c 4248 b3bd 8387 963b
00000210: d626 883d 7a5f a8bd 975c 113d 9a36 073b
00000220: 969e ec3d 1da9 40bd 70ed 84bd bf8d 40bd
00000230: 3402 9abc 9603 a13d 455b 37bc 2b49 96bd
00000240: 13cb 68bd 2b57 8abd fc45 0bbd 4141 e7bb
00000250: 7b14 c5bd 1051 43bd c5e9 ba3c 2093 d33c
00000260: 8a27 d1bc d5c9 58bc a0bc 3dbd 291a 85bd
00000270: d97e f7bc 4593 2dbb 5517 a73d 93e0 40bd
00000280: ed75 993c b94d 36bc 2832 8bbd 4dbe ee3c
00000290: 47dc 953b c72a ac3d 9dbc a23d 5e42 06be
000002a0: dbeb a83d 589d d03d b21b 403d cb66 95bd
000002b0: 07c9 b83d e75e d33b 2ae8 97b9 b3bd c2bc
000002c0: 312d 023e 4964 4fbc 67d9 1f3c b408 01be
000002d0: 3dce 8f3b bbc2 943c 2307 5a3d fea7 b63d
000002e0: d3b8 da3c aad1 bdbd 479f 79bd 6229 60bd
000002f0: 6a65 85bc 6c61 a7bd 2fb9 9a3d 358d ab3d
00000300: ac03 b1bd bf76 f9bc 5663 73bd c402 73bd
00000310: 15e7 bb3d fbc6 51bd 6f21 273d 6509 3c3d
00000320: 4d7f 5a3c e2a4 4bbd ff59 f5bb 3ea7 d8bc
00000330: c695 bb3d ee2d 8a3d 7000 b23b 816a 3c3d
00000340: 33a7 95bd 5bea 813d 0b5c 633d 7e88 e03d
00000350: a8b1 0abd 19b2 223d 03f2 9c3d 7b0e c53d
00000360: 0a9e f43b bacd b33c ba4c c63d b06a 7bbd
00000370: 78ef 953d af9b 99bd 5d8c 433d cb29 6e3d
00000380: e539 b1bd 4f8c c4bc 1789 c5bd cb20 973d
00000390: 62ee ba3d adc8 d13c 671a 49ba 08b0 9e3c
000003a0: 755f 603d 5d06 0d3d 3d65 9cbd 0760 a33c
000003b0: 94dc 9a3d 5b34 853d 4386 9fbd 8033 99bd
000003c0: d2c3 673d 0c02 9d3d 80a3 6ebd 4d19 80bd
000003d0: cde7 bd3c baef 5ebc df7b 043d e354 5e3d
000003e0: fa2e a33d 60b6 a4bc 19a6 edbc 06cf afbd
000003f0: fa79 b63d f79e 4d3d b47b 5c3b 6a9b 19bc
-0.06544166 -0.011623642 -0.00073730946 -0.043797407 -0.029243506 0.052051984 -0.03305611 0.012285484
-0.003179404 0.072199196 0.04059436 -0.028563838 -0.08292832 0.16478479 -0.016816264 0.034976028
-0.043260958 0.07086457 0.06777811 -0.0032867203 0.12178085 0.0029156804 0.0378963 -0.01824096
-0.086160384 -0.08157724 0.012571752 -0.09960077 -0.09190588 -0.06286654 0.051734235 0.041427724
-0.08150381 -0.06675615 -0.03886546 -0.07368977 0.09023636 -0.06408503 -0.06814883 -0.07150719
-0.04594305 0.07224667 0.010120819 0.007448709 -0.098667406 0.08556058 0.06630691 -0.011022364
0.06799431 -0.032263853 -0.09376856 -0.00015447632 0.052718002 -0.044797935 -0.007989552 0.09412313
0.09471617 0.06393632 -0.0868807 -0.05781478 0.1700624 -0.08674156 -0.0065612914 -0.08387626
-0.05148263 -0.085819386 0.035498828 0.068341956 -0.016196169 -0.011685409 0.02563808 -0.01800579
0.000891371 0.041081082 0.06597998 0.051047362 0.024368655 0.076116085 -0.08914163 0.03670753
0.08129374 0.0806752 -0.046615362 0.066877164 0.0035802722 -0.027941799 -0.0038606643 -0.025177324
0.020703655 -0.0016559921 -0.007891844 -0.042043913 0.059993945 -0.069302365 -0.010439665 0.06083415
-0.053308666 -0.06414675 0.026055966 -0.07060905 -0.04170021 0.0819266 0.045608744 0.08577591
-0.098906375 -0.071399026 0.022016117 0.0364846 -0.055266503 0.028078562 0.019959653 -0.036894333
0.08609768 -0.00081611524 0.08762385 -0.059288803 0.0015976735 -0.047617685 0.07684351 0.0843669
-0.122301996 0.022991361 0.08494633 0.006912208 -0.040637203 -0.02137549 -0.07316177 0.0979298
-0.048059862 0.01641022 -0.087540165 0.004593791 0.06648032 -0.08221336 0.03548869 0.002063191
0.11553685 -0.04703628 -0.064906 -0.04701018 -0.018799879 0.07862012 -0.011191194 -0.073381744
-0.05683429 -0.06754907 -0.03400229 -0.0070573394 -0.09623047 -0.04768473 0.022816548 0.02582699
-0.025531549 -0.013231714 -0.046322465 -0.0649913 -0.030211853 -0.0026485485 0.08158747 -0.04708917
0.01873299 -0.011126929 -0.06796676 0.029143477 0.0045733782 0.08406597 0.079461314 -0.13111255
0.08248111 0.10186261 0.046901412 -0.07294997 0.09022718 0.006450522 -0.0002897394 -0.023772096
0.12712552 -0.012658187 0.009756423 -0.12600976 0.004388599 0.018159261 0.053229462 0.08918761
0.02669946 -0.09268506 -0.060942914 -0.054726966 -0.01628371 -0.081728786 0.07554852 0.083765425
-0.086432785 -0.03045213 -0.059420906 -0.05932881 0.09174935 -0.051215153 0.04080337 0.045907397
0.013336015 -0.04971779 -0.007487535 -0.026446935 0.091594264 0.06747042 0.005432181 0.046000008
-0.07307281 0.06343528 0.0555077 0.10963534 -0.033860832 0.03972063 0.076633476 0.096219026
0.007465129 0.021948684 0.09682603 -0.061381042 0.07321066 -0.075003974 0.047741283 0.058145326
-0.08653621 -0.023992686 -0.096452884 0.07379302 0.09127499 0.025608385 -0.0007671476 0.019371048
0.054778535 0.034429897 -0.07636497 0.01994325 0.07561603 0.06504127 -0.0778928 -0.07480526
0.056583233 0.07666406 -0.058261395 -0.06254826 0.02318182 -0.01360696 0.032344695 0.054280173
0.079679444 -0.020106494 -0.029009866 -0.085844085 0.08909984 0.05020043 0.0033643069 -0.0093754325

lin2.bias f4 [50]
00000000: 7d0f 663c 50eb c6bc fe53 693d 68b8 b7bd
00000010: b08f e4bb 7b30 9b3d ca50 2b3d d361 b43d
00000020: fffd e23b 03ef f5bc c3e3 3dbd 8947 25bd
00000030: ed67 c13c 8236 98bd d70c c1bd e20c dfbc
00000040: 02c5 b13d 4f2d 78bc f8aa c9bd 9ac9 f4bb
00000050: 895e c23d 8eec 46bc c98a b0bc 5d66 4c3d
00000060: b407 79bd 163f 333d a984 46bd 1c30 893d
00000070: d563 003d 8295 383c b8ab 78bd c5ce b2bc
00000080: b268 973d 406d 423c ac0e b0bd ad06 cabd
00000090: 35a7 82bc da7c 7bbc 0762 2e3d 1aeb 84bd
000000a0: 08b6 6abd 9023 60bc 481b a7bc 7feb 833d
000000b0: a4a3 b7bd 4b31 8cbc 7b85 9abd cdc1 423b
000000c0: a4e9 99bc 2b9c cdbc
0.014041779 -0.024282128 0.056964867 -0.089707196 -0.0069751367 0.07577606 0.041825093 0.08807721
0.0069272514 -0.030021196 -0.04635979 -0.040351424 0.023609126 -0.074322715 -0.09426277 -0.027227823
0.086801544 -0.015147521 -0.09847063 -0.007470322 0.094906874 -0.01214136 -0.021550553 0.04990231
-0.060798362 0.043761335 -0.04846636 0.06698629 0.031345207 0.011266114 -0.06071064 -0.021827111
0.07393016 0.011866868 -0.085965484 -0.098645546 -0.015948871 -0.015349591 0.042573955 -0.064901546
-0.057302505 -0.013680354 -0.02039875 0.06441402 -0.08966759 -0.017113348 -0.07544991 0.0029717565
-0.018788166 -0.02509888

lin3.weight f4 [10, 50]
00000000: 303c dbbd f606 713d 9ff8 a43c f372 893d
00000010: 996a 27bd e0be fa3d 6424 d8bd 1f66 20bd
00000020: 40d4 2bbd af6f 0c3c 4d1e b83d 513a 8a3d
00000030: fdd8 d1bd 0f33 dbbd c999 853e f4fa eb3d
00000040: f0df f33d d5a1 033e bd3a e7bc 6154 05be
00000050: 8f54 dd3d e18f 7cbd 51a3 84bc 3b1e a9bd
00000060: dcd5 7fbd 3163 153e 5a42 843d af04 e33d
00000070: 8a24 18bd 1ff8 383e d641 123e 9eab 1c3d
00000080: 9ba7 cfbd cfaa 26bd 86be 02be 5840 ba3d
00000090: 15cf e03d 9af0 243c edab d23d ed8c a4bd
000000a0: f832 33bc 447a b73d 787e 8ebc 439e 8bbd
000000b0: e499 2dbe 3815 23bc 110b cb3d 78c3 98bd
000000c0: cd3d 623d 57bd d9bd 5cc0 36bd 6b68 f4bc
000000d0: 5eef bfbd 78ce 0cbd 36b6 31bd 3bd8 af3d
000000e0: 314d 223d e83b 513d 7eef ff3c b27a a7bd
000000f0: a6b1 73bd d4ff 74bd ab0a 5bbd 5d5d 4e3a
00000100: 42da f83d d042 d7ba 5467 b7bd a078 a2bd
00000110: 931f 583c 07a4 e8bd 3c62 7bbd 6a20 15bc
00000120: 495c 0cbd 2e68 9a3d 0307 03be a8be 333d
00000130: 52a1 62bd 6d2b 173d 87e3 46bd c505 a6bd
00000140: f5c4 b63d b451 27b9 f75c 72bd 4091 43bd
00000150: ffec e53d 8737 8b3c dea6 eebd b4f7 f43d
00000160: d5aa 553d 00a2 b8bd e62f 04be 458e 083e
00000170: 2037 fd3d e5a5 b8bd fd3c e5bd fe3e a63d
00000180: 90e5 acbd 8c84 6ebd 0c5d 59bd 3857 53bc
00000190: f09a efbd 89c7 91bd 1059 043d 33b1 f03d
000001a0: 706a b6bd 632f d2bc 93ce 5bbd ef30 04be
000001b0: 133c 95bd adca b73c f134 a73d c757 6339
000001c0: 6c0a 59bd 3444 613d 4f24 793e d0ab 813d
000001d0: afe1 07be 13ce 093e 4f50 e6bd 18cc 5f3d
000001e0: 1ee6 713d e2e9 0abd eba2 04be 6b09 3dbd
000001f0: 1639 023e 23ec 6f3d 316d e0bc f740 023e
00000200: 2897 afbd 8166 6e3e 8925 4abc 9097 f3bc
00000210: 5679 25be c934 963d 5fdf 86bd e257 093e
00000220: 844c c43d 5a95 603d 32c2 d43d 8f69 05be
00000230: 8ac9 f43d 20ee 92bd 80e9 bd3d eb50 b03d
00000240: 1e46 80bd d0fe 1eba 1e12 e73d 7d88 b9bd
00000250: be5a 08be 5184 ffbd c32a 7abc 4f49 b8bc
00000260: 71f7 68bd 1729 6fbc de2d 783c 278a b23d
00000270: 99a1 01bd d918 6abd 3fe6 c6bd e9b3 5fbd
00000280: dd75 c6bd 01fb 803d dcc1 edbd f92a 783c
00000290: 6929 303e 87de b1bd 577a acbd 16f9 d03d
000002a0: 1c0b 973c d39d a4bd 9081 5cbd 74f5 f43d
000002b0: 762e a8bd d097 9c3d 2c9d a63c 6ccd ab3d
000002c0: 4861 403e e84f 3dbc 0354 493d f165 0f3e
000002d0: 4841 3c3a 03b4 773d 69aa 5f3d b5a8 d9bd
000002e0: 8879 aabd 816b bc3d 6ab8 b2bd cd36 af3d
000002f0: 24b0 66bd ea0b 843d 81e4 90ba 1d15 c03a
00000300: ca09 d8bd f1fc 193d f49e 62be 8bea 0e3e
00000310: 3ff0 6fbd 6097 4d3d a720 f2bd 1e86 963c
00000320: f746 a43d b573 ff3d 8395 babd 0591 ebbc
00000330: 6002 f8bd 030b 5f3d d2a7 b4bd 6c43 4fbd
00000340: b04c cbbd 02ea d4bd f803 61bc 5179 8ebd
00000350: 4dad 073e e6e2 adbd 271b f43d 3a12 61b9
00000360: e9d7 07be b298 843d 04aa fa3d acbd c33d
00000370: f8b9 a73d 8465 373c eb06 65bd 6830 75bd
00000380: 44b1 19bd b64f 4cbd 23be 813c 0258 1e39
00000390: 6418 93b9 8c0a 963b 644c 9f3d e47f d73d
000003a0: d0f6 fe3d b8ec 9c39 e428 0cbd 7716 91bd
000003b0: edf3 8cbd f0cb 03bd c080 043e 9d8b 0abd
000003c0: f569 373d 3dca f8bd f37e a2bd 0548 efbd
000003d0: 93c6 53bd bf8e f43d 3d0a 493d 5f50 c23d
000003e0: 9f9d f5bd 2675 e4bd 4ea4 e53a b254 06bc
000003f0: 9379 00bd 760d 043e c693 45bd f78e 58bd
-0.10704839 0.05884453 0.020138083 0.06711378 -0.040873144 0.12243438 -0.10553816 -0.03915989
-0.041950464 0.008571549 0.089901544 0.06749404 -0.10246465 -0.10703098 0.2609389 0.11522475
0.11907947 0.12854703 -0.02822625 -0.13020469 0.10807144 -0.06166065 -0.016191157 -0.08257719
-0.06245981 0.1458862 0.06457968 0.11084878 -0.03714422 0.180634 0.14282927 0.038249604
-0.1013939 -0.04069024 -0.12767991 0.09094304 0.10976998 0.0100671295 0.102866985 -0.08034692
-0.010937445 0.08958867 -0.01739429 -0.068172954 -0.16953236 -0.009953789 0.0991422 -0.07459158
0.05523472 -0.10631817 -0.044617042 -0.029834947 -0.093718275 -0.03437659 -0.04338666 0.085861646
0.039624397 0.05108252 0.031242128 -0.08177699 -0.05949559 -0.05981429 -0.05347697 0.00078721886
0.121510044 -0.001642311 -0.08955255 -0.07933164 0.013191122 -0.11359411 -0.06137298 -0.009101966
-0.034267697 0.07539402 -0.12795644 0.043882996 -0.05532963 0.03690665 -0.04855683 -0.08106569
0.08924285 -0.00015956798 -0.05917069 -0.047745943 0.11226844 0.016994251 -0.11652921 0.11961308
0.05216487 -0.09015274 -0.12908897 0.13335522 0.1236403 -0.09016017 -0.11193273 0.081174836
-0.08442223 -0.058231875 -0.053067252 -0.012899213 -0.11699474 -0.071181364 0.0323115 0.11752548
-0.0890702 -0.025657361 -0.0536638 -0.12909292 -0.07286849 0.02243551 0.08164395 0.00021681107
-0.052988455 0.054996684 0.24330257 0.06331599 -0.13269685 0.13457517 -0.112457864 0.054638
0.059057347 -0.033914454 -0.12952773 -0.04615156 0.12717089 0.058574807 -0.027395817 0.12720095
-0.08573753 0.2328129 -0.012338051 -0.029735357 -0.16159567 0.07334287 -0.065855734 0.13412431
0.09584907 0.054829933 0.10388602 -0.13028549 0.11952503 -0.07174325 0.09273052 0.08609184
-0.06263374 -0.00060651917 0.112827525 -0.09059236 -0.13315865 -0.12476409 -0.015268984 -0.022495894
-0.056876604 -0.014597199 0.015147654 0.08717757 -0.031648252 -0.057152603 -0.09711885 -0.054614935
-0.096904494 0.06297875 -0.11609241 0.015146964 0.17203297 -0.08685022 -0.08421772 0.10203759
0.018437915 -0.08037915 -0.053834498 0.11960879 -0.08211987 0.076461434 0.020338617 0.083887905
0.1878711 -0.011554696 0.049152385 0.14003731 0.00071813585 0.060474407 0.054605875 -0.106278814
-0.083239615 0.09200192 -0.087265804 0.08555374 -0.056320325 0.06447585 -0.0011054428 0.001465473
-0.10548742 0.03759474 -0.22130948 0.13956659 -0.058578726 0.05019319 -0.11822634 0.018374499
0.08021348 0.12473241 -0.09110548 -0.028755674 -0.12109828 0.05445386 -0.08821072 -0.050601408
-0.09926736 -0.10396196 -0.013733856 -0.06956733 0.13249703 -0.08490543 0.119192414 -0.00021464462
-0.13265957 0.06474437 0.12239459 0.095576614 0.081897676 0.011193637 -0.0559148 -0.059860617
-0.03752257 -0.049880706 0.015837735 0.0001510084 -0.00028056197 0.004578894 0.07778242 0.1052244
0.124494195 0.00029931008 -0.034218684 -0.07084363 -0.06882463 -0.03217691 0.12939739 -0.03382455
0.044778783 -0.12147949 -0.0793437 -0.116836585 -0.051703047 0.11941289 0.04908203 0.09487986
-0.119929545 -0.11155157 0.001752028 -0.008198904 -0.031365942 0.1289576 -0.04823663 -0.052870717

lin3.bias f4 [10]
00000000: 0357 41bd ebf6 0ebe 8c52 cbbd 10e8 f5bd
00000010: a4a6 0fbe f2bd b1bd 6ee5 d0bd a191 95bb
00000020: 1a62 673d 3caf 063d
-0.04720212 -0.13961379 -0.09927854 -0.12007153 -0.14028412 -0.08678807 -0.1020001 -0.0045644795
0.05649004 0.03288196

lin4.weight f4 [1, 10]
00000000: c79c 313e 76c3 203e 6cee bb3d 238d 723e
00000010: 7c74 213e 39c7 9fbe 5344 5a3e 36cc 553e
00000020: ce0f 5f3c 9936 3ebe
0.17344962 0.15699562 0.09176335 0.23686652 0.15767092 -0.31206682 0.21315126 0.20878682
0.013614608 -0.18575515
