tutorials/models/cifar_torchvision.pt (torch_old, 249703 bytes, 10 tensors)

conv1.weight f4 [6, 3, 5, 5]
00000000: f070 24be 86b8 10be b33e 723d f2e1 36be
00000010: a78f 31be 5a9a c1bd 0fbf 9cbe 2ece d6be
00000020: 8124 d0be e3a5 74be 0b80 a9be 808b 2abf
00000030: d351 1bbf 2ca5 45be d90b f8bc 8856 113e
00000040: b959 943e cc5d 983e 0c6c cb3e 2c65 ac3e
00000050: 8a37 df3e 6077 0a3f 7722 263f 4bba e93e
00000060: 2e81 8e3e d935 733d 5ad6 993e 32df 9b3e
00000070: 7982 7a3d c8b7 10bd ab17 633e 38af 2e3e
00000080: a130 b0bd 6e1b 8ebe f174 7abc 5190 d6bd
00000090: e618 aebe 04bb dbbe 74bc 1bbe 4587 273e
000000a0: 88bb 28be 0cd2 c43d a751 1f3e 823c bc3d
000000b0: 274d cbbd 00a2 283d 2456 0e3c d39b eb3d
000000c0: 5f5b dc3c cf39 adbe 613c 10bc 0c36 033e
000000d0: c4bd 85bc 5051 863d 0101 09bd c1ab 053e
000000e0: d998 6a3d 530c 3ebe 8c80 59be 7bec af3c
000000f0: da2d 3bbe a2bc 00bf 63d7 acbe 939f d5bc
00000100: 899a c23e 29a5 8ebd f263 223d e08a 793e
00000110: 6232 a53e 6c28 563e 4f81 bc3b 1a32 053e
00000120: 0410 243e bdaf 003e f10a 99bc df6f e23d
00000130: 5ff7 6b3d d1a3 313d 562b d73b 3918 5b3a
00000140: 96d6 48be 58e5 17be 1e80 babd 454c 63bd
00000150: bb59 24bd 5b3d 42be 1f2a a6be c13a d2be
00000160: f8e1 3ebe 5317 5ebe bf12 29be a9f7 52be
00000170: 8c4c c5be dd63 57be a647 9bbe f981 20be
00000180: 7eb1 6bbe ea5e 8fbe c9ff 85be 67e3 8cbe
00000190: 3688 1e3e b9fd 3b3d e505 0e3e 5612 4fbc
000001a0: bb43 e4bd 248d fb3b e551 973c 1e55 153e
000001b0: 1f48 273d f073 ab3d e9fe 2bbe 0b5d 223d
000001c0: 9b83 6b3c 4cb5 ba3c c1f8 dbbd 73f5 9fbd
000001d0: 3fda 123c 89d4 d7bc 0450 f13d ba12 05bd
000001e0: bf75 39bd e9fa 06bd 0f06 ae3c 59f0 433d
000001f0: 84bb 04be 0a36 413e 263c 3b3e e686 6a3d
00000200: bae8 183e 31f6 5fbe 64ce 5e3e bb04 0d3e
00000210: d9f2 013e 33c4 873e f2a8 663d 749f c43c
00000220: d032 453e 13cd 433e 5b87 933e f353 02bd
00000230: ab30 2f3e 5e4a 703e 7958 853e b90d b73e
00000240: 8569 5d3e b2c6 563e 0881 aa3e f71f eb3e
00000250: 7c5f e73e 028e 513e 90b8 423d ad00 6fbd
00000260: 62f7 f7bd d6bf 98bb eeb8 21bd 88a8 30be
00000270: d10b 6ebd a912 573d 8413 a63d d921 523d
00000280: 520f 18be 4879 87bd bc27 d03d ddee 323e
00000290: 7b7e c83d 7a2a 7e3c 02e9 db3d f12e 103d
000002a0: f037 9c3c b820 4e3e 2dec 4f3e 8d96 8c3e
000002b0: a101 1d3e 2526 203e 075b 023e fd27 093d
000002c0: c77a 9e3d 6673 3cbd 126b f5bd 0ee0 72be
000002d0: 207e 0bbe d12b 35bd 5415 983a 3cdd 703d
000002e0: 4e37 d4bd aaf4 fabd 7fda b2bd f3ba 5abd
000002f0: 8272 90bd b213 adbd 62bb 30be d0a1 dd3c
00000300: be3b d6bc 558e 92bd e0f5 ff3c 0dbe 1dbd
00000310: a297 07be ae05 edbd ee27 2bbe 13a4 1ebe
00000320: 9e15 6b3e 86d0 143e 8c3f 903e f566 923d
00000330: 4f03 7bbd 950e 423c 553e 3c3e daea ba3e
00000340: 9b7f 7a3e 48d4 853d 0165 3c3c 0c4b a93d
00000350: 5594 9f3e 21d7 833e 73d8 5a3e 014e 17bd
00000360: d65f ca3d b466 023e 731c 363e 5d7b 92bc
00000370: a038 a03d ed5c 323d 1f1e df3c 0e69 d1bd
00000380: 12bd 8ebd 940f a93e cccf a93d a6d7 7e3e
00000390: 19eb 6b3e 1dcc 013d f159 86bd e924 313e
000003a0: 8f35 883e 176b 553e 9c42 0dbe 96d6 89be
000003b0: a42a 89bd 6766 c43e 8d00 923e 0e57 a3bd
000003c0: 99aa 91be cec0 c9bd 5dd0 b03e eaa7 b43e
000003d0: a708 283d f794 92be 1324 39be f217 f03d
000003e0: e964 023e 9fd1 953d bfbc 1fbf d999 05bf
000003f0: 5f13 3abe 81d4 a5bd 50e9 20be 33ab 18bf
-0.16058707 -0.1413289 0.059141826 -0.17859629 -0.17339955 -0.09453268 -0.30614516 -0.41954178
-0.4065285 -0.23891406 -0.33105502 -0.6661911 -0.6067173 -0.1930129 -0.030279087 0.14193165
0.28974703 0.2975906 0.3973087 0.33670938 0.4359706 0.540884 0.6489634 0.45649943
0.2783293 0.059377525 0.3004635 0.30443722 0.061159585 -0.035331517 0.22176997 0.17059028
-0.08603025 -0.27755302 -0.01528667 -0.10476745 -0.3400337 -0.4291612 -0.15208608 0.16360195
-0.16477787 0.09610376 0.15558492 0.091912284 -0.09926825 0.04117012 0.00868753 0.115043305
0.026899038 -0.33833167 -0.008803458 0.12813586 -0.016325839 0.06558478 -0.033448223 0.130538
0.057274673 -0.18559389 -0.21240443 0.021475067 -0.1827921 -0.5028783 -0.33758077 -0.026077067
0.38008526 -0.069650955 0.039646097 0.24369383 0.32265002 0.20913857 0.0057527195 0.13007393
0.16021734 0.12567039 -0.018681975 0.11056494 0.05760896 0.043369118 0.0065664453 0.00083577965
-0.19613108 -0.14833581 -0.09106468 -0.05549266 -0.040124636 -0.18968718 -0.3245401 -0.4106045
-0.18640888 -0.21688585 -0.16511057 -0.20602287 -0.38534963 -0.21034189 -0.303281 -0.1567458
-0.23016927 -0.280021 -0.2617171 -0.27517244 0.15481648 0.045896266 0.13869436 -0.012638649
-0.11145731 0.0076767374 0.018471668 0.14583251 0.040840264 0.08371723 -0.1679646 0.039639514
0.014374639 0.022791527 -0.107408054 -0.078104876 0.008963167 -0.026346462 0.1178284 -0.032488562
-0.045278307 -0.03295413 0.021243123 0.047836635 -0.12962157 0.1886827 0.18284664 0.057257555
0.14932528 -0.21871258 0.2175842 0.13771336 0.12690295 0.26516876 0.056313463 0.024001814
0.19257665 0.19121198 0.28814206 -0.03181834 0.17108409 0.23465869 0.26044062 0.35752657
0.21622284 0.20974234 0.33301568 0.45922825 0.45190036 0.20464328 0.047539294 -0.058350254
-0.121077314 -0.0046615405 -0.039483003 -0.1725179 -0.058116738 0.05250803 0.08109191 0.05130181
-0.14849594 -0.066149294 0.10163829 0.17473932 0.09789749 0.015513057 0.10737802 0.035201017
0.019069642 0.20129669 0.20304938 0.2745861 0.15332653 0.15639551 0.12730037 0.0334854
0.07738262 -0.04600849 -0.11983313 -0.23718283 -0.13622332 -0.04423124 0.0011603036 0.058804736
-0.10362111 -0.12253697 -0.08733081 -0.053400945 -0.07053091 -0.08451022 -0.17258981 0.027054697
-0.026151534 -0.07156054 0.031245172 -0.038511325 -0.13241437 -0.11573349 -0.1671445 -0.15492277
0.22957465 0.1453267 0.28173482 0.07148544 -0.061282452 0.011844297 0.18383153 0.36507303
0.2446274 0.0653463 0.011498691 0.08266267 0.31167856 0.25750068 0.21371631 -0.036939625
0.098815605 0.1273449 0.1778429 -0.01788109 0.078233 0.043545652 0.027236043 -0.10225116
-0.06969656 0.33019698 0.08291587 0.24886951 0.23038901 0.0316888 -0.06560124 0.17299236
0.26603362 0.20841633 -0.1379494 -0.2692153 -0.06697586 0.38359377 0.28516045 -0.07975589
-0.28450468 -0.09851228 0.3453397 0.35284358 0.041023877 -0.28629276 -0.18080167 0.11723317
0.12733807 0.07315373 -0.6239738 -0.5218788 -0.18171452 -0.080971725 -0.15714002 -0.5963623

conv1.bias f4 [6]
00000000: 0d23 a6be 1be8 da3e ab2e ad3e 94cb b5be
00000010: 1967 87be ad42 48bf
-0.32448617 0.42755207 0.33824667 -0.3550688 -0.26445845 -0.7822674

conv2.weight f4 [16, 6, 5, 5]
00000000: 87c8 30be 37d1 08be 1d8d 7e3c 370f 6a3d
00000010: abe3 0b3e de72 8cbe 7663 8dbe ea77 32be
00000020: 89d2 ccbc e153 833e 7571 93be c742 8abe
00000030: 5189 ffbd 6ed0 d33d 9fce b43e 81b5 2dbe
00000040: c2dc bdbd 63f7 073e b05b 473e 222e c43d
00000050: 0c3e b7bd d514 433e 1bb3 ab3e a662 683d
00000060: 1d12 cebc d0b8 a13d 8bd6 2fbc d592 fb3a
00000070: fa8d 0ebd 2fe6 11bd edd6 8e3d bea9 9ebc
00000080: 612e 05bc 0825 3abc e1d1 fa3c f374 823d
00000090: d169 acbd 79a0 3bbe 773e c7bd c4da f9bd
000000a0: 4c08 b13d 208b 8abc fca7 78be 44ac 88bd
000000b0: 0f80 243a 1e42 983e 6679 f33d aab3 9fbd
000000c0: 206d 93bd c56c 853d 4fdc 04bd c260 c43d
000000d0: 5eac 3a3d 7839 9bbd 05d5 403d c45a 92bc
000000e0: e4b4 53bb 4eb2 f43c 8298 5ebd 8696 cf3d
000000f0: d6f6 b3bc f013 60bd 2dbd 813c 4127 d53d
00000100: e547 3c3e c10c 843c 1bb2 ebbd f2ad a3bc
00000110: e42e 443e 18a8 593e fbb7 603e 27c1 cb3d
00000120: 04d6 803d 78e7 733e 613f 7d3e 09ad c7bc
00000130: 2dcc 3e3e c4ae dcbd b6a5 6cbe 4d95 8c3d
00000140: 25e5 66bd 10a6 b83c a99f 5dbd 8a53 ee3c
00000150: 9949 3f3d 3b8e d7bd 48fc e1bd 796f 5b3c
00000160: 4582 423d 2cb8 c53d b2c7 18be 2a36 60be
00000170: a3ad ad3d c8ef b33e 47fe 923b 93ec cb3c
00000180: fdb8 0cbe bf5d 913e d610 843e fac9 0fbd
00000190: a2c0 50be 67b7 13be afeb e4bc bb6c f03d
000001a0: 4623 0c3e 7bf3 80be da7b 50be a0ae 86bc
000001b0: 6b21 06bd fe03 2e3e d92c 42be 3b2b f2bd
000001c0: 6f80 3cbd b4a8 723d 547b 183e f82f efbd
000001d0: 66ea 043d 4e2b 9e3c ba0e 97bd d29b 4ebe
000001e0: d97c 593d b48d 973e 209d 2e3d bdcf 95bc
000001f0: 58d6 c2bd 800b 95be 37a6 3abe b155 6bbd
00000200: 2bdb a03b 75a1 31be 13e4 90be 722c 46be
00000210: 1200 17be 18a2 80bd 87e0 0ebe 9f91 84be
00000220: 558d 73be c1e0 fcbd 170e ebbd be3a 3dbe
00000230: a9bd 6bbe 4868 a5be 03b6 3ebe 258e 57be
00000240: 60f1 fbbd 7c9e a8bd edc6 34bd 4a8f 0bbe
00000250: 6af2 12be 1c58 2cbe a28d 92be 14c2 36bd
00000260: 1a17 9a3d 5b7a 18be 1a69 6ebd f0e3 aabd
00000270: a1bb 3ebd 1624 40be a2b9 0bbe 2777 8fbc
00000280: e866 053e 8592 9f3b 002d 38be cd9a 8abe
00000290: a365 7fbe 30c1 9d3d c15a 1d3e 2267 3ebd
000002a0: dabf 8ebe ef9e 00be 49ae 0cbe 8277 083e
000002b0: c7e3 833e 282a b73d 505b 04bd 9e36 35bc
000002c0: 1595 4d3d 44c8 0f3e d788 ab3d a4d3 013e
000002d0: a824 85bd fe35 f9bb 4425 a2bd cf52 c5bb
000002e0: b601 833c 4736 26be a85e 21bd 71d4 b63d
000002f0: 05fc d8bd c9c9 713c 2ff1 de3d 94d0 51be
00000300: d1ee 17be 1bd7 f83c 4de4 823d 96f1 d33e
00000310: 0626 763e 9dd9 193d e31e fbbd 7e53 c3bd
00000320: 6e59 95bd 9b6c 24be 01f8 c1bd 1177 d8bd
00000330: 82f9 63be 11f4 993d 4430 ccbb 25de 803d
00000340: 107d a33d 52b2 2cbc 8851 b0bc 4cd1 8abc
00000350: e1bd 8c3d 9c38 0b3e ed2a fcbd d68a 2cbd
00000360: d4e1 0bbe e171 07be 547b ffbc 0ff9 edbd
00000370: c551 cb3d 7a59 483c 251a 7bbe 53f0 85be
00000380: fe2a a2bd 0de6 783e c3d7 15bd 347e 8a3c
00000390: d2df 1ebe f751 c93c d8ac 6d3e eebc 673e
000003a0: fffa aa3d 9e55 5dbd fdb5 1fbe d68a 09bd
000003b0: 7cee d5bc e894 b73d 3467 5d3d f882 52bd
000003c0: 950e 6fbe 1816 53be 0d70 c83d 8b60 9d3d
000003d0: b3a6 653e 101a edbe 5620 9cbe d5ae 62be
000003e0: c0f1 37be 26e6 623e 741e a5ba 7bd5 013d
000003f0: cfc6 223e d8c5 0abe 55d5 3bbe 280b d0be
-0.17263995 -0.13361059 0.015536574 0.057143416 0.13661067 -0.27431387 -0.27614945 -0.17428556
-0.025002735 0.25649932 -0.28797498 -0.27004072 -0.12477363 0.10342489 0.3531389 -0.1696377
-0.09270622 0.13277964 0.1946857 0.09579112 -0.089473814 0.19050916 0.33535084 0.056734703
-0.025155121 0.07896578 -0.010732303 0.001919354 -0.03480337 -0.03561991 0.069745876 -0.019368049
-0.008128733 -0.011361368 0.030617656 0.063699625 -0.084186204 -0.18322934 -0.09728711 -0.12199929
0.08644161 -0.016912043 -0.24282831 -0.06673482 0.0006275186 0.29737943 0.11888389 -0.0779794
-0.07198548 0.06514887 -0.032436665 0.095887676 0.04557454 -0.07579321 0.04707815 -0.017865546
-0.0032303864 0.029870179 -0.05434466 0.10136132 -0.021968286 -0.054706514 0.015837276 0.10407878
0.183868 0.016119363 -0.1150858 -0.019980405 0.19158512 0.21255529 0.21945183 0.0994895
0.0629082 0.23818767 0.24731208 -0.024374502 0.18632574 -0.107755214 -0.23110089 0.06864414
-0.056370873 0.022540122 -0.054107342 0.029092569 0.046701048 -0.10525175 -0.11034447 0.013393276
0.047487516 0.096542686 -0.14919928 -0.21895662 0.08480384 0.35143876 0.0044858786 0.02489308
-0.13742442 0.28391835 0.25794095 -0.03510473 -0.20385984 -0.14425431 -0.027944414 0.11739489
0.13685331 -0.2518576 -0.20359746 -0.01644069 -0.032746714 0.1699371 -0.1896242 -0.11824652
-0.04602092 0.05924292 0.14890796 -0.11679071 0.032450102 0.019307759 -0.07375856 -0.20176628
0.05309758 0.29600298 0.042630315 -0.018287534 -0.09513539 -0.29110336 -0.18227468 -0.05745477
0.0049089394 -0.17346747 -0.28299007 -0.19352892 -0.1474612 -0.06280917 -0.13952838 -0.2589235
-0.23784383 -0.12347556 -0.11477297 -0.1847944 -0.23021568 -0.32306123 -0.1862412 -0.21050318
-0.12301898 -0.082333535 -0.044135023 -0.13628879 -0.14350286 -0.16830486 -0.28623682 -0.04461868
0.075239375 -0.14890425 -0.0582057 -0.08344257 -0.046565656 -0.18763766 -0.13645032 -0.017512871
0.13027537 0.0048697614 -0.17985916 -0.2707123 -0.24941115 0.07702863 0.15366651 -0.046485074
-0.27880746 -0.12560628 -0.1373836 0.13326839 0.25759718 0.089435875 -0.032313645 -0.011060385
0.050191004 0.14041239 0.083757095 0.1267839 -0.06501132 -0.0076053133 -0.07917264 -0.0060218344
0.015992027 -0.16231643 -0.03939691 0.08927239 -0.10594944 0.014757582 0.10885846 -0.20489722
-0.14837195 0.030376008 0.06391201 0.41395253 0.24037942 0.037561048 -0.122617505 -0.09537409
-0.07292448 -0.16057055 -0.09471131 -0.10569585 -0.22263148 0.07517255 -0.0062313396 0.06292371
0.07982838 -0.010540562 -0.021523252 -0.016945504 0.06872154 0.13595814 -0.12312875 -0.04212459
-0.13660365 -0.13227035 -0.031186737 -0.1161977 0.09927706 0.012228364 -0.24521692 -0.26159915
-0.07918356 0.24306507 -0.03658272 0.016905881 -0.15515068 0.024575217 0.23210466 0.22630665
0.08348655 -0.05403673 -0.15596767 -0.03357967 -0.026114695 0.089639485 0.0540535 -0.051394433
-0.23345406 -0.20613897 0.09786997 0.0768443 0.22426872 -0.46308947 -0.3049342 -0.22137006
-0.17963314 0.22158107 -0.0012597577 0.03169773 0.15896152 -0.13552034 -0.18343098 -0.40633512

conv2.bias f4 [16]
00000000: 03e2 8dbd 046e e1be 913a 343e ceb6 46be
00000010: 554f 7b3e 403d d3be 8f98 8d3f 5f1e d03e
00000020: 4819 cdbe 8400 813e 54cd 883f 001b 62bf
00000030: 1cb7 8ebf 7b0b a13f b27c 543f d6c3 51be
-0.06927874 -0.44029248 0.17600466 -0.19405672 0.24541982 -0.41257668 1.1062182 0.4064817
-0.4005835 0.25195706 1.0687661 -0.8832245 -1.114963 1.2581629 0.8300277 -0.20484862

fc1.weight f4 [120, 400]
00000000: ec5b 713d 8890 e63d 1c17 1cbc ee44 b73d
00000010: bbf1 b2bc 3087 d3bb ecbc ac3d 7179 b4bd
00000020: bc40 0abd a813 653c f363 3fbb 0c93 cb3c
00000030: 6a33 883b a185 98bd 663e 443d a9ea 9ebd
00000040: 7a90 6c3c 5410 553d 6174 d7bc dc68 8a3d
00000050: 373f 8ebc fa48 62bd 2b83 60bc cb68 923d
00000060: e14f 1a3d da90 b53c faf8 a33c d4f4 bd3c
00000070: fa22 853c a01f 13bc fa29 33bc 96e0 f2bd
00000080: 598e f2bd d4bf 91bc aec6 b03c 3e35 cfbc
00000090: 9fee 82bd b263 19be 53ef e2bd cd3f 3dbd
000000a0: 5d6b afbc 1dc8 0cbd 2db5 a9bd 2e56 c8bd
000000b0: 738a fabc a61b e63d 1ed8 933d 79b4 9dbd
000000c0: c06c 1c3d 080f b4bc f5f4 713d 0b1e 983d
000000d0: cb40 4b3d 4aaa 2f3d 4bda 19bd 0ddd 933b
000000e0: 588e 52bd f0bd 9c3c d09f 75bc aa0c 123d
000000f0: 2dd2 653c 9e7d 34bc db2f cd39 c349 81bd
00000100: a5a5 76bd dc08 acbc b201 74bd 171c 7bbb
00000110: 8308 c4bc f8d1 33bb f0ae 35bd f252 01bd
00000120: f760 6cbd e9e2 b4bb 24dc 0abd 6640 99bc
00000130: 24ca 2abe 9db8 86bd f749 b0bd ceb2 69bc
00000140: 98fd 1ebd 5c47 9bbd 5bb6 9fbd 48d8 57bd
00000150: 36ff ea3a ff01 84bd d459 0e3d fc5f 3dbd
00000160: a4d2 7bbd 427a a73b 3e84 b0bc 680d 9fbb
00000170: 5457 9cbd 852c 773b 7fb1 803d 35b8 db3d
00000180: b638 c13d fea1 1c3d 2664 bf3d f1d4 203d
00000190: 42d7 1e3d f58e 00bd f579 06bd 72e3 b93c
000001a0: 6c0b 89ba 62ea efbc 2407 c83c 16fd 13bd
000001b0: af53 aaba 45d9 ab37 e833 1dbd 5df0 143c
000001c0: f34b 84bc 2635 43bd 94f3 31bd 6886 cfbc
000001d0: 392b 02bb cbed bbbd 941e f6bb e4d2 2bbc
000001e0: 1aee 9a3c cdd8 0ebd cb18 19bd 7f26 51bd
000001f0: 863c 3cbc 2b7c 26bd 8e53 cbbd 75ee 8abd
00000200: e4c3 b63d 3d8e 0fbc 666a e2bc bd09 8cbd
00000210: 7a5e 1dbd ef52 1a3d 77ad aebd d0e8 0dba
00000220: cd92 e8bd cbe8 7abd d6fb 5ebd d104 dbbc
00000230: 18ef aa3d ccf6 b8bd d661 d9bd 6f73 4dbd
00000240: 1eae 603d ddce a03c ecae 07be cce9 9dbd
00000250: 8995 6fbd 6fa0 cfbc 2fc0 e63b b566 81bd
00000260: d3f6 163c 1854 48bd f325 5a3d 9067 73bd
00000270: bd7e 82bc 9336 b0bd 689d a2bc 4ea3 923a
00000280: 6aa1 c3bd 0f66 bcbd 3a0f a9bc ed6c cdbb
00000290: b98e 033c 52a3 0fbd 5540 9bbc 9ff2 5fbd
000002a0: d558 d4bc 402e 2a3b e8e5 a43c de1c 1c3d
000002b0: 4630 a43d d0ce 1d3d 672c 0c3d 41d9 abbd
000002c0: 6061 a7bd 6cec afbc 4cea 133d 239c 3a3c
000002d0: 4924 76bd d46a 6fbd 0bcd 873c 6b8f 1c3c
000002e0: e5a5 13bd 2257 b4bd 670b 413d f2ca 953d
000002f0: dfa3 923d 8e9e 9cbb 0e18 f7bd efed 1ebd
00000300: 044f 45bc 89aa 0cbd a79e 89bd faac 92bd
00000310: 4daa 663c 47b4 723d 93fc 74bc 0e1f 8dbc
00000320: 5ac4 a5bd 5f1f 83bc 9a84 9bbc 4385 413d
00000330: 155c 153d ddd1 7dbd 74a2 6cbd e0b5 183d
00000340: 2d7b 8bbc 21d7 c93c a2f9 1cbd cd27 1abd
00000350: be41 213c 0365 803d 14ec a0bc 6efa 85bd
00000360: d2cf 3bbd c92a 0ebd 92b3 91bc 2723 7dbc
00000370: e496 88bd d85e 1ebd f090 bc3d e40a 8b3d
00000380: c14a 513d 3e5b e03c 61e5 afbd 1292 27bc
00000390: 7270 c43d 3ac4 f43d 251d 93bb 42e5 1fbd
000003a0: f4a9 7bbd d911 5f3c 7257 b7bc 5229 d4ba
000003b0: 1e81 8b3c dea0 ecbc 7fab f9bc a715 bfbd
000003c0: f903 483d 163d 57bd 5bfe bdbd 251d cdbd
000003d0: 846b 0d3c 1150 bb3d 769a eebc 6f5f 80bd
000003e0: 2ff1 b9bc 3176 8ebc 0dd7 1abd d43c 18bd
000003f0: e5fe 853c c583 8dbd 6bbf d4bd f8bf 05bd
0.058925554 0.11258036 -0.009526994 0.08948694 -0.021843782 -0.0064553246 0.084344715 -0.088122256
-0.03375314 0.013981737 -0.0029203861 0.02485039 0.0041565197 -0.07447363 0.04791107 -0.077596016
0.014438743 0.052017525 -0.026300611 0.067582816 -0.017364128 -0.055245377 -0.013703148 0.07148894
0.037673835 0.022163797 0.020016182 0.023188032 0.01625203 -0.008979708 -0.010935301 -0.118592426
-0.11843557 -0.017791666 0.021579113 -0.025293943 -0.063931696 -0.14979437 -0.11080804 -0.046203423
-0.0214135 -0.03437053 -0.0828651 -0.097820625 -0.030583596 0.11235742 0.072189555 -0.07700438
0.03818965 -0.021979824 0.0590715 0.07427605 0.04962234 0.04288701 -0.037561696 0.0045124353
-0.05140528 0.019133538 -0.014991716 0.03565661 0.014027161 -0.011016278 0.00039136302 -0.06312897
-0.060216565 -0.021000318 -0.05957193 -0.0038316303 -0.02392984 -0.0027438384 -0.044356287 -0.031573243
-0.05770966 -0.005520214 -0.03390135 -0.018707465 -0.16678673 -0.06578181 -0.08607858 -0.014263822
-0.038816065 -0.0758197 -0.077984534 -0.052696496 0.0017928842 -0.06445693 0.034753636 -0.046234116
-0.06148018 0.00511101 -0.021547433 -0.004853893 -0.07633844 0.0037715745 0.06283855 0.10728494
0.09434645 0.038240425 0.09345274 0.039265577 0.038779505 -0.031386334 -0.03283115 0.022691462
-0.0010455674 -0.029286567 0.024417467 -0.036130033 -0.001299491 2.0485963e-05 -0.03837958 0.00909051
-0.016149497 -0.04765811 -0.043445185 -0.025332645 -0.0019862188 -0.09176215 -0.0075109694 -0.010487292
0.018912364 -0.034874726 -0.03737716 -0.051062103 -0.011489039 -0.04064576 -0.09928046 -0.06783763
0.08924082 -0.00876194 -0.027638625 -0.06837795 -0.038420178 0.037676748 -0.085291795 -0.0005413415
-0.11356125 -0.061257165 -0.05443939 -0.026735695 0.08346385 -0.09031448 -0.10614364 -0.050158914
0.05485355 0.01962989 -0.13250321 -0.07710609 -0.058492217 -0.025345055 0.007041953 -0.06318418
0.009214121 -0.048908323 0.053258847 -0.059424937 -0.015929574 -0.08604159 -0.019850448 0.0011187585
-0.09552272 -0.09199154 -0.020637143 -0.0062690885 0.008029633 -0.035067864 -0.018951574 -0.05467474
-0.025921265 0.0025967509 0.02012916 0.038113467 0.0801702 0.03852731 0.034222033 -0.08391047
-0.0817287 -0.02147504 0.036112115 0.011389765 -0.060093198 -0.05845149 0.016577264 0.009555678
-0.03604688 -0.08805682 0.047130015 0.07314099 0.07160162 -0.0047796434 -0.12065135 -0.03880113
-0.012042765 -0.034342322 -0.06719714 -0.07161899 0.014078689 0.059253957 -0.0149527965 -0.017226722
-0.08094092 -0.01600617 -0.018984128 0.04724623 0.03646477 -0.06196772 -0.057772115 0.037282825
-0.017026508 0.024638714 -0.038324006 -0.037635613 0.009842334 0.062692665 -0.01964382 -0.06541906
-0.04585249 -0.03470877 -0.017785821 -0.0154502755 -0.06669405 -0.03866467 0.09207332 0.067891866
0.05109668 0.027387258 -0.085886724 -0.010227697 0.0959176 0.1195149 -0.0044895583 -0.039036997
-0.061441377 0.013615095 -0.022380564 -0.0016186631 0.017029341 -0.028885301 -0.030477284 -0.09330302
0.048831914 -0.05254849 -0.0927703 -0.100153245 0.008631591 0.09146131 -0.029126387 -0.062682025
-0.022698013 -0.017390342 -0.037802745 -0.037167385 0.016356895 -0.06909899 -0.103880726 -0.03265378

fc1.bias f4 [120]
00000000: e65b e9bc c232 58bd cd35 b8bc 968f 963d
00000010: 1cf7 ef3c cf51 95bd 3671 813e 37f6 883c
00000020: 738d ffbc e4a0 9dbc 5b53 1d3e 8216 5bbc
00000030: 8d93 a0bd 705e 88be 2d59 a8bd 7d04 b13e
00000040: 1f2c 75bc e146 343d 9be7 9d3d 5209 303e
00000050: aee8 153c 6c6e fe3d 488c d7bc 9f84 283e
00000060: be25 1b3c d9ae b8bd 5e91 5abd be6c 89bd
00000070: 026b 5c3d 411f 2b3e 8e55 bcbd 7b2c c7bd
00000080: 66ae 213d 0d29 113e 6a39 d23c 3e1d c7bc
00000090: cd7e 8a3c f8fc 77bd 9b93 193e 4136 65bd
000000a0: 04b0 9a3e ccaa 8c3e e37b 7bbd 0904 9c3c
000000b0: 75a9 473d d839 893d 6356 543d fbc1 fa3c
000000c0: ccea 0a3d 9c61 223c a391 383a f2ac 563b
000000d0: a91f a63d 7c99 30bd 9527 3fbb 2c65 81bd
000000e0: 0356 2dbc 6f35 fb3d 5c76 033e 6a79 afbb
000000f0: 4797 0d3e acb9 a13e 42d8 20bd c836 023e
00000100: ac21 a0bc e774 7c3d 4fb6 9e3d bbc4 8b3d
00000110: 2a56 7e3d e939 373e ab86 0a3e 544c be3d
00000120: a967 7dbc 8433 503e c45b 3b3e b214 e7bc
00000130: a258 873d 50d6 f5bc c6f0 283d b8a5 223d
00000140: 8d42 9ebd f583 8c3d bd45 89bc 7b07 5ebd
00000150: f8d7 b83c ae65 b5bd faeb febc 8eb7 b3bd
00000160: 4d86 d33d 9e2b 3a3e a1a1 9b3e 0774 c83c
00000170: 47c5 87bd 42bf 3b3d e2ef 02bd 7f8b f0bd
00000180: c1c2 a33d 6b1f 2c3e 9da3 a83b 9425 aa3d
00000190: 058a 2c3e f653 6ebd 66a2 6ebc 1dea 4dbd
000001a0: ed8c fa3d 55b8 82bd 0dc9 6b3e c8a9 18bc
000001b0: 8b4f db3d 175d 2d3d 2c09 f03b 4325 adb9
000001c0: 72c2 8e3d ee9f a4be cb61 c53c 3165 ea3d
000001d0: fb77 52bd aae8 58ba 6b07 9a3e 2f8a f9bc
-0.028486203 -0.05278278 -0.022486592 0.073516056 0.029292636 -0.072909944 0.25281686 0.016718967
-0.031195378 -0.019241758 0.15363829 -0.0133720655 -0.07840643 -0.2663455 -0.08220134 0.34573737
-0.014964133 0.044012908 0.07710191 0.17191055 0.009149713 0.12423405 -0.026312009 0.16456841
0.009469448 -0.090177245 -0.05336129 -0.06710194 0.053812988 0.16711141 -0.09196006 -0.09725281
0.03947296 0.14175816 0.025662143 -0.024305936 0.016906166 -0.060543984 0.14997713 -0.055959944
0.30212414 0.27474058 -0.061397444 0.019044893 0.04874559 0.06700486 0.051840197 0.030610075
0.033915326 0.009910967 0.00070407445 0.0032756892 0.081115074 -0.043115124 -0.002916788 -0.06318125
-0.010579589 0.12266051 0.1283812 -0.00535505 0.13827239 0.3158697 -0.03926874 0.1271621
-0.019547306 0.061634924 0.07749616 0.06824633 0.06209389 0.17893185 0.13527934 0.09291902
-0.015466609 0.20332152 0.18296725 -0.02820811 0.06608702 -0.030009419 0.041245244 0.039708823
-0.07727537 0.06861106 -0.016756887 -0.054206353 0.02256392 -0.088572845 -0.031118382 -0.08775245
0.1032835 0.18180701 0.3039675 0.024469389 -0.066294245 0.045836695 -0.03196705 -0.11745357
0.07996131 0.1680886 0.0051464573 0.08307949 0.16849525 -0.05818554 -0.014565086 -0.050272096
0.12233911 -0.06382815 0.23025914 -0.009317823 0.10708531 0.042325106 0.007325312 -0.00033024893
0.06970681 -0.32153267 0.024094483 0.11445082 -0.051383954 -0.0008274416 0.30083784 -0.030461399

fc2.weight f4 [84, 120]
00000000: fa79 893d 9917 203d 31db 0f3d 2ecd 8bbd
00000010: bc54 84bd 5ee3 dfbd 5889 febd 7bb1 b93d
00000020: e7aa d0bc 753b 84bd d1d5 5c3d 3cbc 33bd
00000030: cdb1 183d 95b2 d53d fa84 123c e59e 22be
00000040: 28e8 28be 8e42 ec3d 1a8b ab3c da28 cc3d
00000050: 2eb4 9dbd 63b7 193e ff0b 82bd a84c 85bd
00000060: 7aea 78bd 83c0 0a3d 0d83 d8bc 4cd2 ddbd
00000070: 808f 3dbe d153 1c3d 961f 44bd b020 b6bc
00000080: 4fef d3bd c268 753c d70f 823d 0af2 00be
00000090: 9dfd 5f3c 9a7f a2bd 70b4 483d 6157 4b3d
000000a0: f6af d1bd 6645 96bd 3911 a63d 5c2b 1bbd
000000b0: 7bc4 11be aefa 103e ac1b 97bd e4b4 cbbc
000000c0: bbd7 683d ed74 13be c991 b63c a5ad bbbd
000000d0: 06a6 a8bd b4f2 9bbd 2049 e93d 2b72 1638
000000e0: eeba 17bd ce46 9cbd ecdd 53be 8b1f 67bd
000000f0: 83f2 d3bc 5f9b 4bbe eb6f 26bd bf98 a7bc
00000100: e805 eb3d 54e7 13bd 19f4 39bd f844 87bd
00000110: bd6c 4dbd 1560 05be b0b9 43bd ec85 663d
00000120: fb5f c83d 8861 c13c c2ae 63be e8df c5bd
00000130: ac69 08be e2f7 0c3e 5f4f 123d 198c 17be
00000140: ef8b 663d 68d9 16be ad19 923d 3998 e7bd
00000150: 859b ffbc e455 7ebd 5e48 90bd 39a3 64bd
00000160: 1407 89bd 8c81 043e 0e2f c6bc 6e89 b7bd
00000170: 6583 183d ecca c6bd be7f 8fbd 58de aebd
00000180: a40c e2bd e2ca dfb9 3eef 8bbc 58ff 48be
00000190: e9e4 d93d 926b 51be 5a81 d3bc 1e11 973c
000001a0: df13 c33d 5c0d 8fbd db38 2f3c bc52 393e
000001b0: f97c 4b3c 81e2 aa3c 0808 32bc 30a4 293e
000001c0: 6ce1 8c3d 0974 b33d 1cce 963d d210 633d
000001d0: 34ca 363d 64bd babd 142a 9abe b761 55bd
000001e0: 125b 8bbd 4e9c 56bd 7208 71be a1bd 64bd
000001f0: b6fc b23d 88ed 0d3d 5dcc c1bd f16e 303e
00000200: 94a7 0f3d e2ca ee3c 3731 553c 99a5 d73c
00000210: 35b0 57bd 84be f8bd e63e 3c3d c76e 3dbe
00000220: c2fc e13d c621 c4bd 2c64 d9ba b174 62be
00000230: 826d 07bd 062a 193e b825 cdbd ff67 42be
00000240: f1e9 18be 0dcb 19be 5af7 82bd 4caf 3dbd
00000250: 2356 823d bcc6 18bc 28ae bd3c 00a9 66be
00000260: 0388 333d 2015 d4bd 13ab 353d 3f5b cebc
00000270: 8789 b53d 29b9 123d 47c8 bf3d 20da 29bd
00000280: 95d7 08bd 3970 9a3d 02df 0e3e 00aa 5f3d
00000290: 3172 1c3e 67b2 69bc fed2 093e 911d 993d
000002a0: 1fd5 15bd 08b7 d63c dda4 8bbd c28c e23d
000002b0: 3015 b0bd 466e 68bd 6142 83bd 240b 5ebe
000002c0: 0472 7dbd 3e5f 5bbb b2aa 903d 1571 e53d
000002d0: 752e 243d 2714 c3bd f346 7dbd 36bd 32bd
000002e0: 4b3a a8bd bea1 bb3d 3625 85be 1e02 013e
000002f0: ee1a 05be 2b5b 1fbc 39d7 633c 0f60 11bd
00000300: f6c2 593d 2970 1ebd 9c33 5fbc 9570 2bbd
00000310: 3aba 383c ad74 34bd d99b 06bd ac76 c23d
00000320: 8b90 4ebe a36e 763d 2dbf b03d fcb4 e0bc
00000330: 4f57 293d 29cc 8ebd 7ab5 e43d db72 783d
00000340: 689f 5a3d 6b20 9f3c d406 1c3b e0a6 183b
00000350: f4b9 1ebd 84b9 cebd ef7a b13d 3d8a 843d
00000360: e838 3bbd 4064 d93c 2a40 233c dc00 793d
00000370: 1899 e6bc 3bd1 32be 6c1a 5c3d adec 2e3c
00000380: 79d3 8fbd 1f91 8b3c 1854 11be 295f 153d
00000390: 610a c13d 32c7 e33b f50e 243e 9af7 7c3d
000003a0: fb96 ad3d 41a5 553d a500 edbd ac23 ae3d
000003b0: 63cf d13c 0c65 3abc 10e4 f9bd 7cb9 623c
000003c0: 5c54 b8bd 4249 16be 6e04 adbd 61f6 33bc
000003d0: 6629 02bd edfe 883d ea84 42bd 04d4 bc3a
000003e0: 4461 4dbe 7db0 22bd 1b78 aabd 3a64 833d
000003f0: 91e5 cdbd 539b 10be 06b3 61bd 4ed8 803d
0.06712718 0.039085004 0.035121147 -0.06826244 -0.06461474 -0.10932039 -0.1242854 0.09067055
-0.025472118 -0.06456653 0.05391485 -0.043880686 0.03727894 0.104344524 0.008942837 -0.15880926
-0.1649481 0.11536132 0.020940352 0.09968729 -0.07700382 0.15011363 -0.06349944 -0.06508762
-0.06077049 0.033875 -0.026429677 -0.108311266 -0.18511772 0.03816587 -0.047881685 -0.022232383
-0.10348379 0.0149785895 0.063506775 -0.1259233 0.013671306 -0.07934494 0.049000204 0.049643878
-0.1023864 -0.073374555 0.08108754 -0.037883148 -0.14235108 0.14158127 -0.07378325 -0.024866529
0.05684636 -0.14400072 0.022286313 -0.091639794 -0.082347915 -0.07614651 0.113909006 3.5869114e-05
-0.037043504 -0.076306924 -0.20690125 -0.056426566 -0.025872475 -0.19883488 -0.040634077 -0.020458577
0.11475736 -0.036109284 -0.045398805 -0.066049516 -0.05015253 -0.13024934 -0.047784507 0.05628006
0.09783932 0.023606077 -0.22234634 -0.09661847 -0.1332156 0.13766435 0.035720225 -0.14799537
0.056285795 -0.14731371 0.071338035 -0.11308331 -0.031202087 -0.06209363 -0.07045053 -0.055819724
-0.06690803 0.12940043 -0.02419236 -0.089617595 0.037234683 -0.09706673 -0.07006787 -0.085385025
-0.11037567 -0.00042685034 -0.017081853 -0.19628656 0.10639364 -0.20451191 -0.025818516 0.01844078
0.095252745 -0.0698497 0.010694708 0.18097967 0.0124199325 0.020859959 -0.010866173 0.16566539
0.06878933 0.08762366 0.07363531 0.055435963 0.04462643 -0.09118155 -0.30110228 -0.05209514
-0.0680448 -0.052395158 -0.23538378 -0.055844907 0.08739607 0.034650356 -0.09462807 0.17229821
0.035071924 0.029149476 0.013012222 0.02632408 -0.05265828 -0.12145713 0.045958422 -0.1849929
0.11034538 -0.09576754 -0.001658564 -0.22114827 -0.03306342 0.14957437 -0.1001696 -0.18984984
-0.14932992 -0.15018864 -0.06394835 -0.046309754 0.063640855 -0.009324726 0.023154333 -0.22525406
0.043830883 -0.10355592 0.044352602 -0.025189994 0.08864122 0.035821114 0.09364372 -0.041467786
-0.03340872 0.07540936 0.13952258 0.054605484 0.15277936 -0.014263726 0.13459393 0.074763425
-0.0365802 0.026210323 -0.068185546 0.11062004 -0.08597791 -0.05674579 -0.06409145 -0.21683937
-0.061876312 -0.0033473517 0.070638075 0.11203209 0.040083367 -0.09525328 -0.06183524 -0.043637477
-0.082142435 0.09161709 -0.26004952 0.12598464 -0.12998554 -0.009726326 0.013906294 -0.035492
0.053164445 -0.038681183 -0.0136231445 -0.041855413 0.011274869 -0.044056583 -0.03286347 0.09495291
-0.20172326 0.060164105 0.08630214 -0.02743005 0.04134303 -0.06972534 0.111674264 0.06065641
0.053374678 0.019424638 0.002380778 0.0023292825 -0.038751557 -0.10093978 0.08666026 0.06471679
-0.045708567 0.02653706 0.009964028 0.060791835 -0.028149173 -0.17462628 0.053736135 0.010676545
-0.07022757 0.017036973 -0.14192235 0.036467705 0.09425808 0.006951236 0.1602133 0.06175957
0.08476063 0.05215955 -0.115723886 0.085028976 0.025611585 -0.0113766305 -0.122017026 0.013838168
-0.09000465 -0.14676383 -0.084481105 -0.010984034 -0.031777762 0.06689248 -0.047490038 0.0014406447
-0.20056635 -0.039719094 -0.083236896 0.06415601 -0.10053552 -0.14121751 -0.05510237 0.06291257

fc2.bias f4 [84]
00000000: ea5f 8e3e 69b2 723e 9b57 f43d 5609 abbd
00000010: b6e5 743e dd71 943e b682 1b3f 9e5d 603e
00000020: a73e 523e d8b0 5b3e 6311 a13d e252 aebc
00000030: 2ce2 fcbd 7ba9 b13d 3c3b 6cbd 919b 983e
00000040: 268a 69bd 8f8e f63d b8e4 4bbc 5725 1c3b
00000050: 796b 4f3d 04d1 cd3e c2ba 7dbd 69cd 133d
00000060: 32a8 893d 83e0 d33d 7837 243a ad61 713e
00000070: 121d 933e e520 15bd ac0d a13e fa46 693c
00000080: 2793 4e3d c9de a33e f14e 173e 13ec 223d
00000090: 70f7 81bd c253 3e3e f296 043c 9ae4 14bc
000000a0: ea18 a13d cc27 913d 98d8 723d 1aca 24bd
000000b0: b5fd 1bbc cbcc 7e3e 10cf 6e3d 85cb 7abb
000000c0: e691 d93e 984f 9c3d d978 e7bc bf62 ce3e
000000d0: 856e 33bd a915 4abd 0f6e 1b3f df99 5a3e
000000e0: 2598 743d 07bf 19bd c39f d43e bbb9 fb3d
000000f0: 6648 2fbd 1394 873e 8780 013e fb60 533c
00000100: 2a2e 393e 2c55 b03e 9ebe 4cbc 6669 a63e
00000110: 5f48 1ebe 3d33 e43e bb3a 71bd c655 b5bb
00000120: d61e adbd a346 af3e 7b40 ca3e 5eb5 e83c
00000130: 22e3 3e3e 33a9 38bd c765 823d 7262 b83c
00000140: 3038 eebc 340b ba3e 9d7e d13b 5cac 543d
0.27807552 0.2370087 0.11930772 -0.0835139 0.23915753 0.2899312 0.60746324 0.21910712
0.20531712 0.2145418 0.078646444 -0.021279756 -0.12347826 0.08674904 -0.057673678 0.29806188
-0.057016514 0.1203891 -0.0124446675 0.0023825967 0.050639603 0.4019853 -0.061945684 0.036084566
0.06721534 0.103455566 0.0006264369 0.23572417 0.28733116 -0.036408324 0.31455743 0.014238114
0.050433304 0.3200591 0.14776208 0.03977592 -0.06346023 0.18586639 0.008092629 -0.009087706
0.0786608 0.07087669 0.05928859 -0.0402318 -0.009520938 0.2488281 0.05830294 -0.003826828
0.42494124 0.07632369 -0.028255867 0.40309712 -0.04380657 -0.049337063 0.6071481 0.2134776
0.05971541 -0.037535693 0.4152814 0.12291285 -0.042793654 0.2648016 0.12646686 0.01290154
0.18084016 0.3443998 -0.012496619 0.32502288 -0.15457295 0.44570342 -0.0588939 -0.0055339066
-0.08453147 0.3423358 0.3950232 0.028406795 0.18641332 -0.045083236 0.06367069 0.02250788
-0.029079527 0.36336672 0.0063932673 0.051922187

fc3.weight f4 [10, 84]
00000000: 404a 33be 7b6c 303e 6ba4 b13e bfe9 e0bb
00000010: bc22 aebd a691 15be a40a 9cbe c1a2 cebd
00000020: f650 1f3e 8d4b c5bc a641 993d 1e15 fb3d
00000030: 17c9 c63d 6e94 493e 431d aabc cab4 14be
00000040: 9ca0 22bc f653 173e 082e babd fefb 873d
00000050: 2e22 34bd d96f eabc 9b1e 7e3c 9279 0b3e
00000060: dfe9 a6bd dace f2bd aa06 573d 5cfe dd3d
00000070: f3aa 42be 0ce0 80bd eb22 29bd 2f3f 353e
00000080: 5c3d 3d3e cfba 043e 287e efbd 93ce 7d3d
00000090: 7f2c 1c3c a807 15be a88c 733e 6b88 fa3d
000000a0: 7b00 5f3e ad09 23be 20f4 053e dbc1 6a3e
000000b0: b0ab f73d bdb5 873e 9c4f c8bc c273 28be
000000c0: 39b1 883d 23cf 083e b3ae 9d3c c3ed 1ebd
000000d0: 444f 6abd e63f cdbb b29a a8be 09d4 413e
000000e0: 24a6 29be 6098 013d 7b02 613e 4231 ac3c
000000f0: c976 d13d 439b c93c c65c 44be 8bbb b53c
00000100: 3ea2 b7bd d6f9 bbbd e7d7 e43d 1e03 653e
00000110: 43f4 e33d 0c9a a9bd 3ffb 0ebc 9858 f4bd
00000120: 2bb7 a0bd 599d 743e 666c 22bd 1881 023e
00000130: c154 31bd 4277 603e e3ee 1bbe 6027 963d
00000140: f466 873c 9882 b4bd dc2c b13c abb4 373e
00000150: cc76 78be c402 60be 5e5a 413e fcdd ff3d
00000160: 0b67 d6bc 15bb 91be b281 3dbe c1f5 373d
00000170: 0a40 43be 9b09 fcbd 42d2 f5bd c8c6 1c3d
00000180: 8368 d33d ea50 6ebe a1a9 163d 924e 2ebd
00000190: ba2b c03d 5753 2cbe ea79 493e b836 343e
000001a0: 7280 24bb 1059 503d a256 c03d 4b26 ebbd
000001b0: 3b14 f93d 9f9f ab3d c1f3 a8bd 348b 2c3a
000001c0: 5173 8f3e ee56 0abe a1d1 393e de39 a2bd
000001d0: e166 08be 04f9 3a3d 8e9d d63d e43a c2bc
000001e0: 9040 ccbc 8f1c 03be b53a 933b b3b5 31bd
000001f0: e76b 253e 1047 3ebe 5a6c 14bd d9f1 4cbc
00000200: 5b4a d63a a7d7 0ebe 335b a83e 5141 60bb
00000210: 6304 98be b928 fb3d f124 58bd 90e8 93be
00000220: b0c8 193b 1006 813d b858 86be 4038 333e
00000230: c760 db3d f9f0 e6bd cd9d 8abe 9ed6 103d
00000240: f6fc d73e 9429 d7bd 62d5 7abd f84e acbd
00000250: 7cf8 89be 3c45 363e 7804 51bd a078 eb3c
00000260: 4ed2 72bd 118a 37be 6f4d 14bd 5429 bb3d
00000270: 7fda c5bc f3b7 233e 3c46 90be 1631 0f3e
00000280: 2d10 febd c480 ac3d 7e8c e0bc 1618 c4bd
00000290: 1248 4bbd 08f1 2ebe 13bf 333e c548 313e
000002a0: 9d3b 7b3d cc46 973e dd29 bb3d f494 1abd
000002b0: b7c1 d83c e14e 033e d38c 323e 6150 7f3e
000002c0: 465e b43d 031f 583d ef39 8fbe bce3 0a3e
000002d0: df60 eb3d 6024 3d3e 6f5a c23d 05f7 663e
000002e0: 2ce9 5fbd 6ac8 653c 405c 4c3c f979 40bc
000002f0: 9b85 35ba 4215 1b3d 07f9 9e3c 7a96 03bc
00000300: 2b14 9ebd 6058 63be 4062 0ebd cc48 87bd
00000310: 7e97 0bbe c3c8 12be 8fae 97bc 69c3 f33d
00000320: d25a 913e 35fd 983c de4c 553c 74f7 82bd
00000330: 42c0 aebd 2a5c f53d 8916 053e 746c 1d3e
00000340: 163d 0cbe 76e1 0c3d 86fe 583e 6cd3 2e3e
00000350: 3871 98bc c8ae 063e 62fe dabd 4fd1 90bd
00000360: 3c39 8c3e 3eef 06be bd3c 8b3d 0ba7 cfbd
00000370: ec54 753d 7249 323e af79 1e3e bba6 5bbe
00000380: 745d 893d b3ad 083d 33f6 3bbd ff18 3e3d
00000390: 5a6b c9bd 3f5a e9bd 2580 92bd 53eb e4bd
000003a0: 9b85 a53d 9015 0abe f548 2ebd 3b5d ccbc
000003b0: 44ce 313e 75fc d23d a3c9 8abd 842b 28bd
000003c0: d3ed 7e3d 9478 22bc 3ccc 2c3e 0adb 383d
000003d0: 61c1 833d 7089 5fbb c734 ff3d e68d e4bd
000003e0: b1f3 dcbd 8e63 933e 476d e4bd 59ad 3dbe
000003f0: b87c 513e 3920 acbd 4aba f0bc 2d27 8fbd
-0.17508793 0.17228882 0.34695753 -0.006863802 -0.08502719 -0.14606342 -0.30476868 -0.100896366
0.15558228 -0.024083877 0.074832246 0.12259887 0.097063236 0.19685528 -0.020765906 -0.1452209
-0.009925988 0.14778122 -0.09090811 0.066398606 -0.04397791 -0.028617786 0.015510227 0.13620594
-0.08150076 -0.1185586 0.05249659 0.10839531 -0.19010524 -0.062927336 -0.041293066 0.17699884
0.18480438 0.12961887 -0.11693984 0.061964583 0.009532093 -0.14553702 0.23784125 0.12233051
0.21777527 -0.1592166 0.13081408 0.22925512 0.12093294 0.26505843 -0.024452023 -0.16450408
0.066744275 0.13360266 0.019248342 -0.038800966 -0.0572045 -0.006263721 -0.32930523 0.18928541
-0.16567284 0.031639457 0.21973602 0.021019582 0.102277346 0.024610167 -0.19176015 0.022184154
-0.08966492 -0.09178512 0.111739926 0.2236447 0.111305736 -0.08281335 -0.008726894 -0.119309604
-0.078474365 0.23888148 -0.039654158 0.12744558 -0.04329372 0.21920493 -0.15227847 0.07331729
0.016528584 -0.08813971 0.021627836 0.17940013 -0.24264067 -0.21876055 0.18882129 0.12493512
-0.026172182 -0.28463045 -0.18506506 0.044912104 -0.19067398 -0.123065196 -0.12002994 0.03827551
0.103226684 -0.23273054 0.036782864 -0.0425554 0.0938334 -0.16828667 0.19675413 0.17598999
-0.0025100973 0.050866187 0.09391524 -0.11481913 0.12162062 0.08380055 -0.08249617 0.0006582022
0.28017667 -0.13509724 0.18146373 -0.079211935 -0.13320495 0.045647636 0.1047927 -0.023709722
-0.02493313 -0.12803863 0.0044930824 -0.043386173 0.16154443 -0.18581796 -0.036236145 -0.012508833
0.0016349064 -0.13949452 0.3288208 -0.003421862 -0.29690847 0.122636266 -0.052769605 -0.2888837
0.0023465566 0.062999845 -0.26239562 0.17501926 0.10711818 -0.11276431 -0.27073517 0.035360925
0.4218518 -0.10505977 -0.061238654 -0.084134996 -0.2694739 0.17799848 -0.051029652 0.028744042
-0.059282593 -0.17923762 -0.03620666 0.09138742 -0.024152039 0.1598814 -0.28178585 0.13983569
-0.12405429 0.084229976 -0.027410742 -0.095749065 -0.04962928 -0.17084134 0.17553358 0.17312916
0.06133615 0.295462 0.09138844 -0.03773971 0.026459558 0.12823059 0.17436533 0.24933006
0.08807044 0.05276395 -0.27973887 0.13563436 0.11493086 0.18470907 0.09489905 0.22555168
-0.05466573 0.014024833 0.012473166 -0.011747831 -0.0006924511 0.03786207 0.019405855 -0.008031482
-0.077186905 -0.22201681 -0.034761667 -0.06605682 -0.13632008 -0.14334397 -0.018515853 0.11902506
0.28389603 0.018675426 0.013018815 -0.06394854 -0.08532764 0.119804695 0.12996878 0.15373403
-0.13695177 0.034394704 0.21190843 0.17072839 -0.018608674 0.13152611 -0.10693051 -0.070711724
0.27387416 -0.13177201 0.06798694 -0.10139283 0.05989544 0.1741083 0.15476106 -0.21450321
0.06707278 0.033368777 -0.04588909 0.046410557 -0.09834929 -0.11394166 -0.07153348 -0.11177697
0.08082124 -0.13484788 -0.042550046 -0.0249468 0.1736384 0.103020586 -0.067767404 -0.041057125
0.062238526 -0.009916443 0.16874784 0.045130767 0.064333685 -0.0034109019 0.12461238 -0.111598775
-0.10788668 0.28786892 -0.111536555 -0.18523158 0.20457733 -0.084045835 -0.029385705 -0.06989894

fc3.bias f4 [10]
00000000: 5902 04bf 742f 0abf 6a27 afbe c280 0d3f
00000010: 8361 2a3f b9bc 073e 487b 873e 801f 74bd
00000020: 1f81 5d3e 555a 8fbe
-0.5156608 -0.5397866 -0.34209758 0.55274594 0.6655504 0.13255586 0.26461244 -0.059600353
0.21631287 -0.27998605
